tic_tac_toe_q_learning.pth (torch, 43294 bytes, 6 tensors)

fc1.weight f4 [128, 9]
0.44016704 -0.31142107 -0.089656666 -0.4585894 0.054717876 -0.3039242 0.5840908 -0.14825282
-0.07535202 -0.077284805 -0.022540154 -0.05570174 -0.302346 0.38176787 0.042531926 -0.26120847
-0.20184118 0.19168049 0.07859338 -0.4130866 -0.035035018 -0.42691207 0.085519426 0.051157296
0.25663477 0.17643599 0.23018639 0.0816073 -0.06554451 0.056309685 -0.05336826 0.07955688
0.129746 -0.12432462 0.13910079 0.36948875 -0.19092633 0.36954755 0.07737326 0.03386445
0.2748034 -0.1400264 -0.16394894 -0.08729056 0.025600078 0.5077211 0.11138658 0.23651491
0.41439393 -0.3613585 0.15708281 -0.38828626 -0.3224748 -0.16987729 0.035371315 0.19498573
-0.096716724 -0.38473576 0.13509183 0.029793914 -0.5162384 -0.021893533 -0.14874598 0.11160808
0.047459077 0.101703696 0.08379136 0.07119979 0.14892577 -0.0945222 0.2198106 0.31863368
-0.28144318 0.13986672 -0.07239992 0.10856853 0.06521411 0.25549626 -0.34019327 0.032273944
-0.032819595 -0.17851146 -0.14579731 -0.21705808 -0.3535988 -0.3425676 -0.01755002 -0.35449532
-0.23596536 -0.13066763 -0.2010409 -0.14866161 0.2897537 -0.0134502305 0.09212404 0.4150872
-0.4247362 -0.0377838 0.091417566 0.42173633 -0.2620765 -0.0047624735 0.035714265 0.46343613
-0.137926 0.23096038 0.28809842 0.13694869 0.55006266 0.16248487 0.2950335 -0.037324756
0.5771333 0.37562397 0.18641706 0.029440831 0.21787345 -0.50805706 -0.5041553 -0.5962801
-0.45410112 -0.4829925 -0.5534976 -0.29989263 -0.4926424 -0.44723344 0.33225077 -0.14877436
-0.039237007 0.050758097 -0.099281594 0.11101443 0.1358611 -0.26881638 0.10360818 0.14860909
-0.22149411 -0.07500887 0.055620234 -0.034041908 -0.0057245484 -0.41943738 0.08353599 0.24369547
0.16244608 0.28853238 0.010694476 0.2763283 -0.35847223 -0.009167925 -0.069855414 -0.06860496
-0.3336591 0.07821749 -0.12793545 -0.2510813 0.28989485 -0.085613206 -0.20519489 -0.17242023
-0.103987776 -0.01730323 -0.09231001 0.3213553 0.37351084 -0.03275085 -0.08798959 0.15379529
0.0688787 0.061090663 0.11992648 -0.05439801 -0.18106924 -0.27238274 -0.22751637 -0.03428626
-0.086059175 -0.32567468 0.060035445 0.18977626 -0.18266746 0.0649911 0.228946 0.33953366
0.23932625 0.3226347 -0.11534919 0.14982148 -0.3255551 0.2939979 -0.28312877 0.07246987
0.13190474 -0.4004919 -0.17595375 0.37587124 0.0047355867 0.0016890006 0.119384386 0.24087639
0.009440223 -0.19341531 0.21271846 -0.06402323 -0.44855008 -0.022433206 -0.109151 0.008278096
0.20838264 -0.16652445 0.12646008 0.1956414 -0.05203835 -0.009873131 -0.07447318 -0.15265103
-0.05782779 -0.24713792 0.011507303 -0.48886994 0.028332075 -0.019549334 -0.3361783 -0.12577909
0.06186583 0.15404658 0.2624603 0.15072924 0.31110224 0.14810103 0.40361026 0.30097187
0.35271814 0.57173663 -0.3475015 -0.05984453 -0.07057483 -0.270303 0.29959628 -0.1759733
-0.22403482 0.19089054 0.16223185 -0.22349598 0.05437793 0.07730747 0.035245236 0.32315168
-0.26558885 -0.12727028 0.10730906 -0.046886846 -0.08106044 -0.016007207 -0.18627535 -0.044375386
00000000: 935d e13e 9572 9fbe ea9d b7bd 3bcc eabe
00000010: da1f 603d f49b 9bbe fa86 153f 96cf 17be
00000020: 2952 9abd 7f47 9ebd 21a6 b8bc 8227 64bd
00000030: 18cd 9abe 1477 c33e f535 2e3d 1ebd 85be
00000040: 74af 4ebe e447 443e 91f5 a03d 1680 d3be
00000050: e180 0fbd 3894 dabe cf24 af3d 508a 513d
00000060: a265 833e a3ab 343e fbb5 6b3e ba21 a73d
00000070: 333c 86bd fca4 663d ad98 5abd b8ee a23d
00000080: 23dc 043e e89d febd 7070 0e3e a12d bd3e
00000090: 3182 43be 5635 bd3e df75 9e3d 73b5 0a3d
000000a0: 08b3 8c3e 1563 0fbe 3be2 27be 65c5 b2bd
000000b0: 41b7 d13c 03fa 013f a61e e43d f730 723e
000000c0: 712b d43e fb03 b9be 51da 203e 75cd c6be
000000d0: 6b1b a5be 50f4 2dbe 83e1 103d 57aa 473e
000000e0: 6b13 c6bd 16fc c4be 8355 0a3e 5e12 f43c
000000f0: 3328 04bf 115a b3bc de50 18be c792 e43d
00000100: 7364 423d 074a d03d ce9a ab3d 32d1 913d
00000110: ff7f 183e db94 c1bd 0816 613e f423 a33e
00000120: 5219 90be 3939 0f3e 6946 94bd 2d59 de3d
00000130: fa8e 853d 68d0 823e d02d aebe af31 043d
00000140: d76d 06bd b5cb 36be e44b 15be 7944 5ebe
00000150: e70a b5be 0565 afbe 0fc5 8fbc 6980 b5be
00000160: e7a0 71be bccd 05be aadd 4dbe c03a 18be
00000170: 995a 943e 5b5e 5cbc 87ab bc3d 4f86 d43e
00000180: 0677 d9be 30c3 1abd 2239 bb3d d3ed d73e
00000190: e42e 86be 860e 9cbb 1f49 123d 8047 ed3e
000001a0: 793c 0dbe e180 6c3e a381 933e 473c 0c3e
000001b0: e8d0 0c3f 6f62 263e a20e 973e d8e1 18bd
000001c0: 02bf 133f c951 c03e 1de4 3e3e e62d f13c
000001d0: 381a 5f3e 0710 02bf 5210 01bf d0a5 18bf
000001e0: f17f e8be cb4a f7be 05b2 0dbf 878b 99be
000001f0: a03b fcbe c8fb e4be c61c aa3e 4e58 18be
00000200: fcb6 20bd b9e7 4f3d 2654 cbbd 895b e33d
00000210: 2c1f 0b3e 4da2 89be 8730 d43d fb2c 183e
00000220: 5acf 62be 409e 99bd 0bd2 633d 876f 0bbd
00000230: fe94 bbbb 7fc0 d6be eb14 ab3d 4e8b 793e
00000240: 4458 263e 84ba 933e e237 2f3c e77a 8d3e
00000250: ac89 b7be 1135 16bc 5b10 8fbd c280 8cbd
00000260: 5ed5 aabe 7e30 a03d 8301 03be ba8d 80be
00000270: 196d 943e fa55 afbd 9c1e 52be ee8e 30be
00000280: 8bf7 d4bd 81bf 8dbc 080d bdbd af88 a43e
00000290: d03c bf3e c125 06bd e333 b4bd 837c 1d3e
000002a0: 4710 8d3d 343a 7a3d 049c f53d 73d0 5ebd
000002b0: 376a 39be c075 8bbe 0dfa 68be c06f 0cbd
000002c0: cb3f b0bd d5be a6be bae7 753d b554 423e
000002d0: 2e0d 3bbe 0e1a 853d d270 6a3e 5bd7 ad3e
000002e0: f111 753e 6030 a53e 323c ecbd cd6a 193e
000002f0: 28af a6be e586 963e 41f6 90be 156b 943d
00000300: 0912 073e 460d cdbe 382d 34be 3272 c03e
00000310: fb2c 9b3b 7561 dd3a cd7f f43d 4da8 763e
00000320: 2aab 1a3c aa0e 46be ded2 593e 9c1e 83bd
00000330: 5ba8 e5be d8c5 b7bc 8f8a dfbd daa0 073c
00000340: 4262 553e 6385 2abe c07e 013e 3856 483e
00000350: 2a26 55bd eac2 21bc 6585 98bd 8d50 1cbe
00000360: d5dc 6cbd b911 7dbe 2189 3c3c 294d fabe
00000370: ab18 e83c ed25 a0bc 901f acbe 3ccc 00be
00000380: 0667 7d3d 63be 1d3e 3261 863e c458 1a3e
00000390: cb48 9f3e cca7 173e 01a6 ce3e fc18 9a3e
000003a0: 7997 b43e 555d 123f b7eb b1be 8a1f 75bd
000003b0: 8989 90bd 2865 8abe af64 993e 5832 34be
000003c0: 6269 65be cf78 433e 1b20 263e 21dc 64be
000003d0: 64bb 5e3d 6153 9e3d 4f5d 103d 2374 a53e
000003e0: 43fb 87be 2453 02be dac4 db3d 6c0c 40bd
000003f0: 0403 a6bd 8c21 83bc f7be 3ebe f7c2 35bd

fc1.bias f4 [128]
-0.26325822 -0.4709169 0.27946374 -0.3503098 -0.019902747 -0.40415064 0.4206549 -0.42432413
-0.49659598 0.38213655 -0.23620388 0.37750188 -0.02072721 0.30976444 0.62017685 0.048183434
-0.3945935 0.49445948 -0.29224142 -0.18483578 -0.3540993 0.5553271 0.14416948 -0.60942245
-0.16116771 0.0275274 0.30516535 -0.4177984 -0.45274502 -0.105614334 -0.10622941 0.18608017
0.19173115 -0.3229521 0.21271138 -0.05293737 -0.4785971 0.38900685 -0.115813 -0.16613737
-0.13421655 0.18713112 0.4388192 -0.4890115 0.28809372 0.4983431 -0.13501786 0.14027765
-0.27465916 0.5279179 -0.11456905 -0.23204 -0.18535607 -0.3277248 0.38568702 0.34205294
-0.07971127 0.4095582 0.14133649 0.33592904 0.58326507 0.29973292 0.60929334 0.55838627
-0.107036404 -0.23642871 0.24941139 -0.33589536 0.46564102 0.57953614 -0.3090991 0.4977346
0.62340766 -0.091933556 -0.16039266 0.23589794 -0.2890868 0.11367785 0.51082563 0.1763101
0.060603667 -0.2528213 0.10277037 -0.16167411 0.35169423 0.130265 -0.27858153 -0.2913334
-0.34829038 -0.10332761 -0.45148936 0.20131724 -0.3634849 -0.17371726 -0.16999231 0.45867127
-0.40653566 -0.4335345 -0.0264193 0.14927877 0.13038516 0.3853106 0.3339891 -0.27704048
0.29993203 -0.2574417 0.0011436838 0.018599564 0.33376345 0.5415402 -0.15416351 -0.09783074
0.12253989 -0.31563273 0.014339604 -0.0975171 0.4957007 -0.46829203 0.1785771 0.16261631
0.57809836 -0.29392654 -0.11447804 -0.24815637 -0.21208401 0.28218487 0.34359837 -0.5268899
00000000: c8c9 86be 051c f1be df15 8f3e ce5b b3be
00000010: 160b a3bc d5ec cebe 1460 d73e 0341 d9be
00000020: d441 febe 67a7 c33e 6edf 71be ed47 c13e
00000030: 1ccc a9bc 7299 9e3e e9c3 1e3f fe5b 453d
00000040: 2908 cabe cb29 fd3e aba0 95be 9745 3dbe
00000050: 814c b5be eb29 0e3f 2aa1 133e 1c03 1cbf
00000060: 2609 25be 2481 e13c a23e 9c3e ace9 d5be
00000070: 32ce e7be 544c d8bd ce8e d9bd cd8b 3e3e
00000080: 2c55 443e fa59 a5be 03d1 593e dbd4 58bd
00000090: ae0a f5be e82b c73e 5e2f edbd ea1f 2abe
000000a0: 1070 09be 4d9f 3f3e e9ac e03e b75f fabe
000000b0: 0581 933e d426 ff3e 1f42 0abe f2a4 0f3e
000000c0: 20a0 8cbe a125 073f 2ea3 eabd e59b 6dbe
000000d0: fbcd 3dbe 8ccb a7be c578 c53e 9021 af3e
000000e0: aa3f a3bd 9db1 d13e 83ba 103e e4fe ab3e
000000f0: dc50 153f 9876 993e a6fa 1b3f 67f2 0e3f
00000100: e735 dbbd 5e1a 72be b365 7f3e 7afa abbe
00000110: 8068 ee3e 7b5c 143f 3d42 9ebe 12d7 fe3e
00000120: a597 1f3f a947 bcbd f93d 24be 3b8f 713e
00000130: 2f03 94be efcf e83d 78c5 023f a38a 343e
00000140: 8d3b 783d cb71 81be 4679 d23d e68d 25be
00000150: 4411 b43e 3064 053e 3da2 8ebe a729 95be
00000160: 1e53 b2be 6d9d d3bd 9d29 e7be 1b26 4e3e
00000170: b11a babe f0e2 31be 7712 2ebe f6d6 ea3e
00000180: 7125 d0be 3cf8 ddbe 4a6d d8bc 89dc 183e
00000190: b083 053e 6e47 c53e 9f00 ab3e 40d8 8dbe
000001a0: b190 993e 66cf 83be a9e7 953a 1d5e 983c
000001b0: 0be3 aa3e 61a2 0a3f 0add 1dbe 7c5b c8bd
000001c0: 32f6 fa3d 9d9a a1be a9f0 6a3c 0cb7 c7bd
000001d0: 7bcc fd3e f9c3 efbe eadc 363e e484 263e
000001e0: 41fe 133f 8a7d 96be 7673 eabd b41c 7ebe
000001f0: 8d2c 59be 897a 903e 20ec af3e 42e2 06bf

fc2.weight f4 [64, 128]
-0.09619392 -0.013143544 -0.17097548 0.038949423 0.0047977217 -0.07708357 -0.03930915 0.07083517
0.06948693 -0.042662993 -0.11154703 -0.009804253 0.11101597 0.010038125 -0.1520137 -0.076828286
-0.078495495 -0.09622189 -0.20988882 -0.29489273 0.0031315535 -0.24094146 0.036653753 0.0590316
0.0065189125 -0.10152219 0.16047898 0.026787143 -0.09058817 -0.14891684 -0.025078854 -0.1129993
-0.03124224 -0.07604982 0.10467965 0.05248536 0.007460872 -0.18489923 -0.004075561 0.024848301
0.0327248 0.026614284 -0.3719979 -0.05982828 -0.27216592 -0.12896183 -0.18224251 0.06450082
-0.062465433 -0.047978524 0.05986209 0.08146112 -0.0016738067 0.03298662 -0.01977379 -0.095708594
-0.0037977432 0.008747509 0.010328282 0.05576529 -0.08934584 -0.019245258 -0.11410642 0.09633123
-0.016600354 -0.09716483 -0.057704777 -0.018554896 -0.29556718 -0.111449644 0.07598966 0.032935705
-0.057545915 -0.07252574 -0.10986709 -0.023370955 -0.06900333 0.013641132 -0.011984886 0.043068834
-0.021228414 -0.0030826998 -0.063039325 0.008306511 -0.0211121 -0.010907439 -0.21004565 -0.11332475
-0.014711529 -0.0011861814 -0.06314799 -0.06816661 -0.01095889 -0.1548692 0.04909255 -0.22068219
-0.18369691 0.044308305 0.13965909 -0.1491459 -0.16366075 -0.12523632 -0.14655502 -0.107264906
-0.16374014 -0.017653195 0.107813485 -0.075625464 -0.2576795 0.06351078 0.063239455 0.10788781
-0.09869781 -0.12892039 0.06790388 0.15228309 -0.08892958 0.033678927 -0.06128461 -0.15341851
-0.16794743 -0.074995555 -0.10149645 0.11713337 -0.0023640967 -0.23286183 -0.18879756 -0.055060167
-0.039689995 -0.043408472 -0.065617934 0.008120071 -0.2955119 0.037466355 -0.13028407 -0.05518073
-0.19464764 -0.09991032 -0.081503734 0.0046792235 -0.21746515 0.033814307 0.0056702085 0.12899832
-0.34322572 -0.09425734 -0.16712594 0.042043243 -0.16763522 0.042436395 -0.22709621 -0.10715179
-0.019254766 -0.038637638 -0.04798112 0.24354766 0.0029126913 -0.05626688 0.1517223 -0.35133952
-0.098510765 0.12392172 -0.11469311 -0.010454271 0.14082995 0.030301992 -0.21427478 -0.0537656
-0.07367596 -0.19391882 -0.06623785 0.04338819 -0.033813354 -0.13247694 -0.09121486 -0.1449285
-0.18326642 -0.14690258 0.062217172 0.15442507 -0.38543743 0.16768281 0.015113458 0.0832644
0.046273146 -0.25046876 -0.0109193195 0.11104136 0.008026386 -0.20564725 -0.06633269 -0.03155759
-0.0832546 -0.10770397 -0.13015786 -0.1687956 -0.1154761 -0.15055986 -0.0017032729 -0.047931213
0.029077685 -0.20013858 -0.15453078 -0.21157569 -0.25844696 -0.09764293 -0.14137484 -0.018003661
-0.3594896 0.029310731 -0.1351087 -0.052019466 0.07627502 -0.02284925 -0.055860445 0.10211334
-0.030516915 -0.14079912 -0.15162294 -0.038370892 -0.08160666 -0.540655 -0.081014015 -0.07307837
-0.013504779 -0.017772686 0.021672964 0.05991334 -0.015459333 0.021338843 -0.09463791 0.0051194266
0.07017567 -0.0072504063 -0.16510785 -0.09995 -0.03277953 -0.07132 0.040021583 -0.14765912
-0.052530106 -0.022725796 -0.017045427 0.001489914 -0.13010435 -0.10737852 -0.36767623 -0.044616677
-0.08733461 0.08744855 0.042228144 -0.041688535 -0.14450969 -0.2754975 0.027843006 0.22461835
00000000: 5101 c5bd 0558 57bc 3214 2fbe 6e89 1f3d
00000010: 3536 9d3b fedd 9dbd a202 21bd 0812 913d
00000020: 2a4f 8e3d 64bf 2ebd c572 e4bd 04a2 20bc
00000030: 575c e33d f376 243c 7ba9 1bbe 2658 9dbd
00000040: 3fc2 a0bd fb0f c5bd 18ed 56be 2efc 96be
00000050: c03a 4d3b 5cb9 76be 3f22 163d 1ecb 713d
00000060: 9a9c d53b deea cfbd 9a54 243e b670 db3c
00000070: 4a86 b9bd a87d 18be 2b72 cdbc 2d6c e7bd
00000080: baef ffbc 02c0 9bbd 4962 d63d e4fa 563d
00000090: 557a f43b 3956 3dbe 498c 85bb aa8e cb3c
000000a0: 710a 063d 3306 da3c 8276 bebe 800e 75bd
000000b0: 5559 8bbe 920e 04be c89d 3abe 0219 843d
000000c0: c1db 7fbd 2185 44bd f331 753d 16d5 a63d
000000d0: a263 dbba fa1c 073d a5fc a1bc de02 c4bd
000000e0: 8fe3 78bb b651 0f3c f437 293c 256a 643d
000000f0: f4fa b6bd 3ba8 9dbc a0b0 e9bd 4f49 c53d
00000100: 77fd 87bc 5bfe c6bd d85b 6cbd 7000 98bc
00000110: 9554 97be b63f e4bd 78a0 9b3d 97e7 063d
00000120: 44b5 6bbd 6088 94bd ff01 e1bd 7274 bfbc
00000130: 9e51 8dbd 0e7f 5f3c 415c 44bc f268 303d
00000140: 36e7 adbc 1f07 4abb c31a 81bd 0818 083c
00000150: 48f3 acbc 1db5 32bc 3516 57be ce16 e8bd
00000160: a008 71bc a579 9bba bc53 81bd f09a 8bbd
00000170: eb8c 33bc 0896 1ebe 4515 493d 83fa 61be
00000180: 0b1b 3cbe a07c 353d cb02 0f3e b4b9 18be
00000190: af96 27be f33d 00be 8512 16be b4ad dbbd
000001a0: 7fab 27be 6f9d 90bc 51cd dc3d 86e1 9abd
000001b0: 91ee 83be f111 823d b083 813d 49f4 dc3d
000001c0: 1422 cabd b503 04be 3011 8b3d 19f0 1b3e
000001d0: b620 b6bd eaf2 093d 9205 7bbd be19 1dbe
000001e0: 69fa 2bbe 4597 99bd 5fdd cfbd 9fe3 ef3d
000001f0: f6ee 1abb 5573 6ebe 2654 41be c586 61bd
00000200: fa91 22bd 15cd 31bd b262 86bd 0c0a 053c
00000210: 564d 97be 5276 193d 3069 05be 3005 62bd
00000220: b651 47be c89d ccbd 6eeb a6bd 2c54 993b
00000230: 2faf 5ebe df80 0a3d 28cd b93b 2318 043e
00000240: 48bb afbe fe09 c1bd 1023 2bbe 8935 2c3d
00000250: 91a8 2bbe c9d1 2d3d e98b 68be 6672 dbbd
00000260: 2cbc 9dbc 8042 1ebd da87 44bd 8f64 793e
00000270: dae2 3e3b 1a78 66bd 175d 1b3e c6e2 b3be
00000280: 03c0 c9bd acca fd3d 39e4 eabd 6448 2bbc
00000290: ba35 103e e23b f83c d96a 5bbe 5139 5cbd
000002a0: 6ce3 96bd a892 46be b6a7 87bd d1b7 313d
000002b0: df7f 0abd 09a8 07be dbce babd 2368 14be
000002c0: 31aa 3bbe a16d 16be 6fd7 7e3d 9b21 1e3e
000002d0: 0e58 c5be 0bb5 2b3e 709e 773c 8786 aa3d
000002e0: e988 3d3d 713d 80be f2e6 32bc a769 e33d
000002f0: 1a81 033c 3195 52be 6fd9 87bd 8842 01bd
00000300: 6381 aabd e693 dcbd 1a48 05be c1d8 2cbe
00000310: bc7e ecbd 5d2c 1abe 5b40 dfba 8553 44bd
00000320: 5334 ee3c 21f1 4cbe 513d 1ebe 4ca7 58be
00000330: 2953 84be 04f9 c7bd 91c4 10be 6a7c 93bc
00000340: 050f b8be 0f1d f03c ef59 0abe 5d12 55bd
00000350: 1436 9c3d 5a2e bbbc eccd 64bd cc20 d13d
00000360: 9cfe f9bc a52d 10be 0b43 1bbe cc2a 1dbd
00000370: 6421 a7bd 5e68 0abf adea a5bd 1daa 95bd
00000380: 2643 5dbc 0698 91bc 808b b13c b167 753d
00000390: 2449 7dbc ccce ae3c 85d1 c1bd ddc0 a73b
000003a0: 43b8 8f3d d194 edbb 0812 29be 96b2 ccbd
000003b0: d443 06bd 3810 92bd aced 233d f433 17be
000003c0: cf29 57bd 732b babc daa2 8bbc 3849 c33a
000003d0: 133a 05be 45e9 dbbd 0f40 bcbe fabf 36bd
000003e0: 7ddc b2bd 3a18 b33d 6bf7 2c3d 99c1 2abd
000003f0: 59fa 13be 020e 8dbe 0417 e43c 5a02 663e

fc2.bias f4 [64]
-0.08467187 -0.18315573 0.061128333 -0.05574889 -0.13374506 -0.04111863 0.19094643 0.41137907
0.395126 -0.035375312 0.54502594 -0.048827477 0.4001637 -0.03214343 0.02788138 0.025774863
0.00869394 -0.046481255 -0.11858211 0.37825128 -0.061363097 0.05202752 0.04757532 -0.050378412
0.04941869 -0.11018765 0.006991965 0.21026918 0.054911382 -0.028160756 -0.035629198 -0.10991672
-0.07708719 0.0075345575 0.019143155 0.4371887 0.56453186 0.5180257 0.07064819 -0.082290374
-0.10776359 0.2049469 0.52274984 0.36784765 0.043187194 -0.013639749 0.03245196 0.27296102
-0.09586649 -0.030081475 0.62378895 0.47041085 0.031472266 -0.040123377 0.672693 0.06805806
0.2901856 -0.057563383 0.03590178 0.028370874 -0.08837927 -0.032387152 0.001768541 0.1560639
00000000: 7268 adbd 2d8d 3bbe b461 7a3d f358 64bd
00000010: 77f4 08be 026c 28bd 7687 433e 47a0 d23e
00000020: f44d ca3e b4e5 10bd d286 0b3f 52ff 47bd
00000030: 42e2 cc3e d4a8 03bd 7e67 e43c ce25 d33c
00000040: 0771 0e3c 2163 3ebd 2ddb f2bd 27aa c13e
00000050: df57 7bbd cf1a 553d 57de 423d 9859 4ebd
00000060: 416b 4a3d 10aa e1bd db1c e53b ce50 573e
00000070: c2ea 603d 63b1 e6bc ecef 11bd 041c e1bd
00000080: e3df 9dbd 73e4 f63b 1bd2 9c3c 33d7 df3e
00000090: 2985 103f 559d 043f 00b0 903d db87 a8bd
000000a0: 28b3 dcbd 9add 513e efd2 053f 8756 bc3e
000000b0: 0ee5 303d 4179 5fbc 59ec 043d 8cc1 8b3e
000000c0: a655 c4bd 6d6d f6bc a2b0 1f3f b1d9 f03e
000000d0: 10e9 003d 6958 24bd 9c35 2c3f 0662 8b3d
000000e0: 3593 943e 95c7 6bbd bf0d 133d 096a e83c
000000f0: 3100 b5bd 64a8 04bd 64ce e73a 37cf 1f3e

fc3.weight f4 [9, 64]
-0.001976664 0.087635376 -0.060421575 -0.07747838 0.09693366 0.05487711 0.1838545 0.34012872
0.29739052 -0.05789514 0.24670772 0.0047063963 0.10330857 0.04372969 0.059431016 -0.001951872
0.03902793 0.013714988 -0.07771827 0.16686226 -0.073918074 -0.027627248 0.10459715 0.06774758
0.02593173 0.030266494 0.10732589 -0.18634193 0.0030174828 0.010631337 0.115865305 0.06697241
0.037749946 0.0978142 0.11180776 0.28011113 0.15896228 0.2551829 0.026791105 0.07044537
-0.08994907 -0.24704282 0.33425954 0.13293466 0.25680393 0.08013036 -0.048138067 0.12371496
-0.087679185 0.043220256 0.28801435 0.13102472 0.08264949 -0.12008487 0.2986 0.08853024
-0.14772494 0.017333388 0.061884753 0.2996381 -0.02300471 0.05527314 -0.016925886 -0.05325321
-0.03248313 -0.28554013 -0.23913844 0.025255298 0.048324484 -0.007319673 0.08479176 0.124022536
0.27365324 0.16911721 0.15456724 -0.021262215 0.032585446 -0.0017657403 0.006617011 0.037298497
-0.059152104 0.061102673 0.001124972 0.008265317 -0.10485116 0.06794142 -0.12648119 -0.119341396
0.030149285 -0.11344533 0.0019529028 0.20871529 0.10897505 0.15905339 0.116313085 -0.12329913
-0.0629949 -0.09905189 0.056522876 0.25378576 0.15489706 0.30937088 0.25883064 0.096336044
-0.064815715 0.089712106 0.19030724 0.16543058 0.14435698 -0.032056674 -0.030557837 0.14487755
-0.017114997 -0.0116433175 0.29537514 0.3420714 0.058239155 0.0015097965 0.3191626 0.0057689147
0.44967967 0.07728109 0.052598685 0.2527096 0.0018817091 -0.0045286985 -0.034322754 0.21814814
-0.17980719 -0.0041912203 -0.08604661 0.017483817 0.01290077 0.0026375798 -0.15171258 0.15344207
0.16030292 0.0014871297 0.3123722 0.014436678 0.016399948 0.006898062 0.10381108 -0.03180626
0.05538463 -0.08767036 -0.023413647 0.08521335 -0.04876456 0.18091528 0.09616983 -0.049790785
-0.054027364 -0.053414874 0.0084039 0.13162878 -0.04762716 0.054535687 0.06393794 -0.047630128
0.04658043 -0.01981518 0.024605313 0.19500971 0.3019779 0.31263652 0.18433292 -0.059533834
0.091009505 0.12175739 0.19968086 0.21312669 0.20928796 0.05171745 -0.07819632 0.2040964
0.09801051 0.06495202 0.21713683 0.20118406 0.056853887 0.034215905 0.2724487 -0.01202856
0.4022722 0.0075642304 0.039163668 -0.0030018175 -0.04701157 -0.02269712 0.09574713 0.2096388
0.01984598 -0.0064580087 0.16563138 0.011411251 0.09688326 -0.087838426 0.4082006 0.27731627
0.099886194 0.0427286 0.21032639 0.029354712 0.23321538 -0.019133508 0.09029024 -0.045208406
0.1263791 -0.10206404 -0.11925538 0.17625555 -0.060022086 0.18394814 -0.034294873 -0.0927324
0.09534785 0.106375664 0.054601025 0.21631052 0.0644787 0.09191614 -0.120807976 0.0908188
0.02443773 -0.072978675 0.08692604 0.3432502 0.1791352 0.22603875 0.12588266 0.07970019
-0.014076963 0.045833983 0.2772223 -0.12458608 -0.114482485 0.123878196 0.11930001 0.1447509
-0.10804551 0.022939682 0.22837633 0.16571411 0.01831858 -0.12712511 0.36740816 0.07502383
-0.27592176 0.07863338 0.09106382 0.19499351 -0.0027980655 -0.08236931 -0.056075804 0.10981567
00000000: eb8a 01bb 2d7a b33d 9d7c 77bd fcac 9ebd
00000010: 2885 c63d d2c6 603d 5b44 3c3e 5a25 ae3e
00000020: 9243 983e 7423 6dbd f3a0 7c3e 1d38 9a3b
00000030: 7293 d33d e71d 333d f06d 733d f5d5 ffba
00000040: c0db 1f3d d4b4 603c c22a 9fbd f1dd 2a3e
00000050: 5c62 97bd 8a52 e2bc 0837 d63d 3ebf 8a3d
00000060: c86e d43c 70f1 f73c adcd db3d 6bd0 3ebe
00000070: f6c0 453b 0f2f 2e3c ca4a ed3d d528 893d
00000080: b09f 1a3d d052 c83d 78fb e43d ba6a 8f3e
00000090: 02c7 223e 55a7 823e 0579 db3c aa45 903d
000000a0: 3837 b8bd cbf8 7cbe 1124 ab3e 0620 083e
000000b0: ce7b 833e 631b a43d 6c2c 45bd 455e fd3d
000000c0: 2591 b3bd b907 313d 9e76 933e 582b 063e
000000d0: 2344 a93d 0eef f5bd 19e2 983e 584f b53d
000000e0: 3545 17be c0fe 8d3c de7a 7d3d 2a6a 993e
000000f0: 6074 bcbc 1766 623d 28a8 8abc 0a20 5abd
00000100: 080d 05bd 5132 92be b5e0 74be 33e4 ce3c
00000110: e5ef 453d ded9 efbb 4da7 ad3d 87ff fd3d
00000120: 471c 8c3e 102d 2d3e e046 1e3e 192e aebc
00000130: 5178 053d 6a70 e7ba 83d3 d83b 4fc6 183d
00000140: 7a49 72bd cc46 7a3d cc73 933a 416b 073c
00000150: 34bc d6bd df24 8b3d 4984 01be 4369 f4bd
00000160: a2fb f63c 0656 e8bd 8bf8 ff3a 76b9 553e
00000170: 502e df3d e4de 223e 8e35 ee3d 4184 fcbd
00000180: 7803 81bd b8db cabd 8884 673d 35f0 813e
00000190: 569d 1e3e dc65 9e3e 7385 843e d54b c53d
000001a0: 1abe 84bd fbba b73d e7df 423e a266 293e
000001b0: 51d2 133e dc4d 03bd 6e54 fabc c85a 143e
000001c0: c034 8cbc 9dc3 3ebc 693b 973e fc23 af3e
000001d0: 2e8c 6e3d 5de4 c53a 4869 a33e 2a09 bd3b
000001e0: 6a3c e63e 8c45 9e3d b871 573d 2763 813e
000001f0: aea3 f63a 7a65 94bb 0496 0cbd 3a62 5f3e
00000200: 601f 38be 8156 89bb 3439 b0bd 393a 8f3c
00000210: c05d 533c 3fdb 2c3b 8b5a 1bbe eb1f 1d3e
00000220: 7326 243e cbeb c23a 40ef 9f3e d187 6c3c
00000230: 2f59 863c 2309 e23b e79a d43d 4847 02bd
00000240: feda 623d 858c b3bd facd bfbc 5684 ae3d
00000250: 59bd 47bd db41 393e b0f4 c43d 6cf1 4bbd
00000260: cc4b 5dbd 8ec9 5abd 83b0 093c b2c9 063e
00000270: b214 43bd d060 5f3d e5f1 823d cf17 43bd
00000280: 1fcb 3e3d 7253 a2bc 1591 c93c a0b0 473e
00000290: d99c 9a3e e511 a03e c5c1 3c3e c0d9 73bd
000002a0: 3163 ba3d f05b f93d 2479 4c3e e23d 5a3e
000002b0: 954f 563e add5 533d 6425 a0bd a6fe 503e
000002c0: bcb9 c83d 9105 853d 1e59 5e3e 3203 4e3e
000002d0: 9fdf 683d fa25 0c3d 657e 8b3e 7013 45bc
000002e0: 9ff6 cd3e 5ddd f73b 156a 203d 24ba 44bb
000002f0: 348f 40bd 50ef b9bc 1217 c43d 8eab 563e
00000300: 0994 a23c b49d d3bb 469b 293e 41f6 3a3c
00000310: bb6a c63d a2e4 b3bd abff d03e 66fc 8d3e
00000320: 2291 cc3d 2f04 2f3d cd5f 573e 4b79 f03c
00000330: 03d0 6e3e e0bd 9cbc 17ea b83d 732c 39bd
00000340: 8669 013e f406 d1bd 2a3c f4bd 567c 343e
00000350: b8d9 75bd e75c 3c3e c878 0cbd 7cea bdbd
00000360: bc45 c33d 7cdb d93d 53a5 5f3d 8180 5d3e
00000370: 690d 843d 873e bc3d 2c6a f7bd 35ff b93d
00000380: a231 c83c d875 95bd 4806 b23d 7dbe af3e
00000390: 386f 373e b476 673e 62e7 003e da39 a33d
000003a0: 10a3 66bc 6abc 3b3d 15f0 8d3e fd26 ffbd
000003b0: cb75 eabd dab3 fd3d 9053 f43d 9439 143e
000003c0: f746 ddbd 00ec bb3c 7cdb 693e f6b0 293e
000003d0: d910 963c 162d 02be ec1c bc3e 18a6 993d
000003e0: 9e45 8dbe 8a0a a13d ab7f ba3d 61ac 473e
000003f0: c05f 37bb 3eb1 a8bd beaf 65bd 0ae7 e03d

fc3.bias f4 [9]
0.39906585 0.3380028 0.28022158 0.55013657 0.49441746 0.14404736 0.589408 0.34837714
0.51478165
00000000: 5c52 cc3e b40e ad3e 3479 8f3e c0d5 0c3f
00000010: 4924 fd3e 2781 133e 71e3 163f 7d5e b23e
00000020: bbc8 033f
